tests/tensorflow/pre/parameters.npy (npy, 31968 bytes, 1 tensors)

array f4 [7960]
00000000: 4898 433d 2d9d 843e 7759 133e 8068 233e
00000010: 3750 973d d423 a53e 3e2d a1be 19a5 b53e
00000020: f222 ed3e aef5 a53d ea01 a83e 5361 d83d
00000030: 732e 1e3b 38cf 1f3e 1641 293e 0493 3f3e
00000040: 6b01 613e a58e 2e3d 3a05 90be 4786 1fbd
00000050: 9479 6fbe 61f6 b63e 60de 6fbc 48f2 9dbe
00000060: c232 4ebe 34c0 2c3e db70 503e 659f c8ba
00000070: 4634 e03e c34b 03be 4e42 dfbe f398 e63d
00000080: df5a 7d3e 18dd 58be 6691 debe 8a83 ff3d
00000090: b26f fbbe 346a 033e e27b 43be 1502 e63e
000000a0: 9c1e 353e 2bcd 89be 8fe1 813d 688d 37be
000000b0: ce38 5abd fc29 4cbe 86ce cabe f446 243e
000000c0: b2b9 acbe 55d3 6c3e aade 903e f1a7 e63e
000000d0: 277e 873e 402f 613e a224 c5be f4b6 113e
000000e0: 9cba f23c 03ee 8bbe 5654 6f3e 99b0 573d
000000f0: 4b43 983d db70 acbe 1fa4 0a3e baf2 c03d
00000100: a95c d2bd fee2 2b3b 3ce9 d2b9 9dbf 973e
00000110: e607 783e e1c9 8a3e 4882 5e3d 4b3a c5be
00000120: ad8e f2be 762b c7bd caa8 74be 1477 ce3e
00000130: c5aa 63be 6f23 8abe 26ce 97be 55f7 1d3e
00000140: 4c46 1ebe 113f df3e f29b d2bc 32e3 6cbd
00000150: 3654 1d3e ccf4 4a3e 7dfd 21be d7cc c3be
00000160: 147f f1bc 67b2 7fbd 32e9 ec3e fe5c 2f3e
00000170: 2a02 203d b4ed aabe 2783 f43d d406 8b3e
00000180: 6951 e73b 73f3 d0be 4284 bdbd b20f 8bbd
00000190: de61 cabe 009e 1a3d d3d8 cf3e f852 913e
000001a0: 69b9 fdbd 4ae4 f9bd 29d5 35bb c1e5 ec3e
000001b0: c6f0 a6be 414d 9f3e 18d8 973c 07b8 bd3c
000001c0: 67d2 c53e 84fe 943e b2d6 12be fc7f 7a3e
000001d0: 62e3 bfbe 4be0 efbe 0265 dfbe efde d7be
000001e0: ae9c e13e cec3 383e 874c 723e a884 303e
000001f0: 0e2c 603e 7734 133d 5c31 893c fff9 ab3d
00000200: 52fd e3be 8f64 9cbe 9292 a83e 472d e6be
00000210: 594c aabe 7472 c7be 3247 473b b89e f73e
00000220: c5c9 51be 14bc 2dbe d5f4 343d fd4a a53e
00000230: eee5 d63e f269 7abe bf8a e23d f472 b5be
00000240: 4aa9 3fbe dc09 483e f316 6ebd 1f6f 893d
00000250: 8ba2 6dbd 1d44 b43e fe7a c63e 1e8a 3d3e
00000260: 0f1f fc3d 8650 b9bd 02b6 b0be d058 a6be
00000270: 759b 1bbe ad8d ea3e 8ea8 a2be 465c 7dbd
00000280: ba7a 003f 601a 6e3d f972 4dbe b004 babe
00000290: 26bf e43e 2add f9bd e298 d4be 015f dabd
000002a0: 7209 65be 82dc e3bd 6e77 f43e d30b ef3d
000002b0: 5fa5 de3e 9620 9fbd 2757 e53d d460 b23e
000002c0: db3c 583e ef4d ac3d 1582 463d c2c1 9ebd
000002d0: 0a82 e13e c51d a53e 056c e1be b4f1 9ebe
000002e0: 7e5e b63e cc03 86be 7294 e6be 23d6 91be
000002f0: 0e18 f0be cd2b 733e d628 c2be c311 9fbe
00000300: a1c1 89bd d282 74bd 36da f03e 34c8 6d3e
00000310: 8de5 6e3d 6926 f93e baec 43be 32b7 bebd
00000320: a686 f0be 91fb 863e 91c9 adbe 6265 69bb
00000330: eaf5 a9be cc86 c2be 0348 443e 1c25 35be
00000340: 261a c1be df55 c7be ec0d 6cbe cdfc 80bd
00000350: 1d02 89be b89f a93e 6a37 29be 7689 c83d
00000360: 4531 893d 5b72 e8be 16d5 173e a5b7 2c3e
00000370: 1e8c d6be ed8f ad3e 0991 87be bc3b a7be
00000380: 3e7b 01be 8439 ddbe 7e5f acbe 5741 8ebe
00000390: 2a78 da3e a379 8bbe 4696 c63e db17 f2be
000003a0: 3701 c23e 70f3 bebe aa07 b13e 5ce9 08be
000003b0: 6eda b13e 0f8a a8be 0ec3 893d ce09 853d
000003c0: 8a78 923e d60f 763e 814a 87be 20d9 6cbe
000003d0: 9ade 61be 34ce 66be 663f 933e 945f 233e
000003e0: 4a6c 3cbe 7b42 78be 9401 36be feb2 2c3e
000003f0: af4e 853d 90ce 93be 8678 a4be a4b4 2ebe
0.04775265 0.25901166 0.14389597 0.15957832 0.07388347 0.32253897 -0.3147983 0.35477522
0.46315724 0.081035 0.3281396 0.10565438 0.0024136573 0.15606391 0.16528735 0.18708426
0.21973197 0.042616505 -0.28128988 -0.038946416 -0.23386222 0.35734847 -0.014640421 -0.30848908
-0.2013655 0.16870195 0.20355551 -0.0015306292 0.4378988 -0.1282187 -0.43605274 0.112596415
0.24741696 -0.2117809 -0.43470305 0.12476261 -0.49108654 0.12833482 -0.19090226 0.44923463
0.17687458 -0.26914343 0.0634185 -0.17925036 -0.05327683 -0.19937891 -0.3961069 0.16042691
-0.33735424 0.23127492 0.2829488 0.45050004 0.26463434 0.2199068 -0.3850451 0.14229947
0.029629998 -0.27330026 0.23372015 0.05265865 0.0743471 -0.33679852 0.1353917 0.094212964
-0.1027158 0.0026227827 -0.00040228094 0.29638377 0.24221763 0.27107146 0.054323465 -0.38521037
-0.47374478 -0.097250864 -0.23892513 0.40325224 -0.22233112 -0.2698016 -0.29649466 0.15426381
-0.15456504 0.43602803 -0.025709126 -0.057833858 0.15364155 0.19819945 -0.15819354 -0.38242218
-0.02947954 -0.062425997 0.46271664 0.17125317 0.039064564 -0.33384478 0.11939078 0.27153647
0.0070592654 -0.40810737 -0.09253742 -0.06790103 -0.39527792 0.037748337 0.4059511 0.28383613
-0.1238888 -0.12201746 -0.0027745462 0.46269038 -0.3260557 0.31113628 0.018535659 0.02315904
0.38637087 0.2910043 -0.14339712 0.24462885 -0.37478167 -0.4685081 -0.4363175 -0.42162272
0.4406485 0.18043444 0.23662005 0.17238104 0.21891806 0.035938706 0.01674717 0.08397292
-0.44529206 -0.3054547 0.32924324 -0.4495642 -0.33261374 -0.38954508 0.0030407426 0.4836328
-0.20487125 -0.16966277 0.044178803 0.32283774 0.41972297 -0.24454477 0.1106162 -0.35439265
-0.18716922 0.19535011 -0.058127355 0.06710648 -0.05801634 0.35208216 0.3876571 0.18509719
0.123106115 -0.09048562 -0.3451386 -0.32489634 -0.15196021 0.45811215 -0.31769222 -0.061855577
0.50187266 0.058130622 -0.2006339 -0.363317 0.44677085 -0.12200387 -0.4152289 -0.10662652
-0.22366884 -0.11126043 0.47747368 0.11672177 0.43485543 -0.07769887 0.111982636 0.348395
0.21116965 0.08413302 0.0484639 -0.077518 0.44044524 0.32249275 -0.44027725 -0.3104378
0.35618967 -0.26174772 -0.4503513 -0.28483686 -0.46893352 0.23747177 -0.3792178 -0.3106824
-0.06726385 -0.059695072 0.47041482 0.23220903 0.058324385 0.48662117 -0.19133273 -0.093122855
-0.4697773 0.26363805 -0.33942845 -0.0035613407 -0.3319543 -0.37993467 0.19168095 -0.17689937
-0.37715262 -0.38932702 -0.23052186 -0.06298218 -0.26759425 0.33129668 -0.16525045 0.097918436
0.066988505 -0.45399746 0.1482738 0.1686693 -0.41903776 0.3389887 -0.2647784 -0.3266276
-0.1264467 -0.43207943 -0.33666605 -0.27784225 0.42669803 -0.2724124 0.38786525 -0.47283825
0.37891552 -0.37295103 0.3457616 -0.1337027 0.3473696 -0.3291783 0.06726657 0.06496011
0.2860759 0.24029478 -0.2642403 -0.23129702 -0.22057572 -0.22539598 0.28759307 0.15954429
-0.18400684 -0.2424411 -0.1777404 0.16865155 0.06509148 -0.28868532 -0.32123202 -0.17061096
