tests/tensorflow/pre/parameters.npy (npy, 688 bytes, 1 tensors)

array f4 [140]
000000 00 46 3a 3d 44 c2 84 3e a4 68 10 3e b0 f5 20 3e
       0.045476913 0.25929463 0.14102417 0.15718722
000010 e0 5d 94 3d cc b3 a7 3e 9e 67 9d be 38 f7 b5 3e
       0.07244468 0.32754362 -0.30743116 0.35540175
000020 48 25 f1 3e 8a a5 95 3d a4 d7 a6 3e b0 f5 d8 3d
       0.47098756 0.07306965 0.32586396 0.10593736
000030 de 26 f0 b9 68 5c 1d 3e e8 c7 27 3e f0 b2 44 3e
       -0.00045805325 0.15367281 0.16384852 0.19208884
000040 ad 8c 68 3e a0 1f 31 3d e4 02 8c be 83 26 40 bd
       0.22709914 0.04324305 -0.27345955 -0.046911728
000050 0c 9b a5 3e b0 42 91 3e 00 ce 65 3b 38 27 b4 be
       0.32344854 0.2837119 0.0035065413 -0.35186172
000060 b0 7f de be c8 48 6e be f4 a8 98 be 80 35 a2 bc
       -0.43456793 -0.23269951 -0.298164 -0.019800901
000070 24 ee 9e be f0 c1 98 bd 40 9d fb 3c 50 32 f2 bd
       -0.31041062 -0.07458866 0.030714631 -0.118260026
000080 00 3c e3 3d 68 13 1b 3e 00 ce 34 3e f8 cc 1d 3e
       0.110954285 0.15144122 0.17656708 0.1541022
000090 d8 8a e3 be 68 c6 9d 3e d0 70 f0 3d d0 26 ed bd
       -0.44441867 0.30815434 0.11740267 -0.115796685
0000a0 45 2d 3c bd bd 37 df 3e 68 66 a1 be 09 70 90 3e
       -0.04594161 0.43597212 -0.31523442 0.28210476
0000b0 b1 55 85 be b7 0b e2 be 3f 30 86 3e 15 8c b8 be
       -0.2604194 -0.44149563 0.26208684 -0.36044374
0000c0 33 b9 e8 3e b7 86 4e 3e 20 39 70 3d 20 33 50 3e
       0.45453796 0.20168577 0.05864823 0.20332003
0000d0 08 f1 13 be 88 b0 84 3e 80 d6 f3 bc 40 78 b8 3d
       -0.14447415 0.25915933 -0.029765368 0.09007311
0000e0 10 ab e1 be c8 a5 a7 3e 24 1b ba 3e c0 23 f8 3e
       -0.44075823 0.3274367 0.36348832 0.48464775
0000f0 00 3f c4 bd 78 67 dc 3e 78 cc f3 be 58 8f ee be
       -0.09582329 0.4304769 -0.47616935 -0.46593738
000100 00 3a 09 bc 34 1c 98 be 30 c9 b4 3d 58 98 be be
       -0.008375645 -0.29709017 0.08827436 -0.37225604
000110 00 ce f2 be b4 09 f2 be 7c 96 b6 be 58 53 58 be
       -0.4742279 -0.47273028 -0.35661685 -0.21125543
000120 00 65 c6 be 10 62 46 3e 60 08 14 bd e8 ca 28 3e
       -0.38748932 0.19373345 -0.0361408 0.16483653
000130 40 94 45 3e 54 6e e9 be f4 02 ba be d0 e5 c1 3e
       0.19294834 -0.45591986 -0.36330378 0.37870646
000140 73 bf a7 3d 72 85 05 be c4 0b 04 3e dd be 43 3d
       0.08190813 -0.13039187 0.12895113 0.047789443
000150 42 22 cb be c0 4e db 3e 7f 7c 8a 3e b8 eb 1d 3e
       -0.39674574 0.4283352 0.27048108 0.15421951
000160 d4 b2 73 be 82 dd 07 be e0 54 9c 3e 70 eb f7 bd
       -0.23798686 -0.13268092 0.30533504 -0.12105453
000170 00 f3 f0 bd 8c 7d de be d8 d0 97 3e 94 cf c5 be
       -0.117650986 -0.4345516 0.29651523 -0.38634932
000180 a0 5d a6 bd 80 9a ec bc 9c f7 f6 be e8 59 93 3e
       -0.08123326 -0.028882265 -0.48235786 0.2877953
000190 c7 3e f2 3e e5 e6 ea be 8e b8 bb bc 8e 9c 40 bd
       0.4731352 -0.45879284 -0.022915151 -0.047024302
0001a0 ad 77 85 be 51 b4 32 3e 81 89 cf be cd 15 37 3d
       -0.26067868 0.17451598 -0.40534595 0.044698525
0001b0 62 19 6b be 6d 0d 2a be 0a 08 a9 be 03 89 d8 3e
       -0.22958902 -0.16606684 -0.33013946 0.42292032
0001c0 33 f4 ab 3e 3a a5 2d be df 12 b6 3e 56 7f e8 be
       0.33584747 -0.1695756 0.35561273 -0.4540965
0001d0 ad 22 95 be ea e6 95 be 3c be d5 3d 0a a3 e4 be
       -0.29128018 -0.29277736 0.10436675 -0.4465564
0001e0 cd cc cc 3d cd cc cc 3d b7 43 d1 3d cd cc cc 3d
       0.1 0.1 0.10217994 0.1
0001f0 cd cc cc 3d cd cc cc 3d 47 7e b9 3d cd cc cc 3d
       0.1 0.1 0.090572886 0.1
000200 df ed c9 3d d0 37 db 3d 26 ce c7 3d d1 44 de 3d
       0.098598234 0.10704005 0.097561166 0.108529694
000210 b7 f3 bf 3d 41 83 c9 3d f0 d8 df 3d 3d 6d b1 3d
       0.09372657 0.09839488 0.109300494 0.08663414
000220 16 da c8 3d 32 d2 e2 3d 78 4f bf 3d 34 34 d4 3d
       0.098072216 0.11075248 0.09341329 0.103615195
